…
  "author_association": "NONE",
  "active_lock_reason": null,
  "body": "Hi,\r\n\r\nAfter banging my head against the problem for the past hours I decided to please ask for your assistance.\r\n\r\nI am working with a keras model with the following layout:\r\n\r\n```\r\n____________________________________________________________\r\nLayer (type)                 Output Shape              Param #\r\n=================================================================\r\ninput_1 (InputLayer)         [(None, 53)]              0\r\n_________________________________________________________________\r\nbatch_normalization (BatchNo (None, 53)                212       \r\n_________________________________________________________________\r\nactivation (Activation)      (None, 53)                0\r\n_________________________________________________________________\r\nh1 (Dense)                   (None, 64)                3456\r\n_________________________________________________________________\r\nbatch_normalization_1 (Batch (None, 64)                256\r\n_________________________________________________________________\r\nactivation_1 (Activation)    (None, 64)                0\r\n_________________________________________________________________\r\nh2 (Dense)                   (None, 64)                4160\r\n_________________________________________________________________\r\nbatch_normalization_2 (Batch (None, 64)                256\r\n_________________________________________________________________\r\nactivation_2 (Activation)    (None, 64)                0\r\n_________________________________________________________________\r\nh3 (Dense)                   (None, 64)                4160\r\n_________________________________________________________________\r\nbatch_normalization_3 (Batch (None, 64)                256\r\n_________________________________________________________________\r\nactivation_3 (Activation)    (None, 64)                0\r\n_________________________________________________________________\r\nh4 (Dense)                   (None, 32)                2080\r\n_________________________________________________________________\r\nbatch_normalization_4 (Batch (None, 32)                128\r\n_________________________________________________________________\r\nactivation_4 (Activation)    (None, 32)                0\r\n_________________________________________________________________\r\nh5 (Dense)                   (None, 16)                528\r\n_________________________________________________________________\r\nbatch_normalization_5 (Batch (None, 16)                64\r\n_________________________________________________________________\r\nactivation_5 (Activation)    (None, 16)                0\r\n_________________________________________________________________\r\n=================================================================\r\nTotal params: 15,573\r\nTrainable params: 14,987\r\nNon-trainable params: 586\r\n_________________________________________________________________\r\n\r\n```\r\nafter training the model, running:\r\n\r\nexplainer = shap.DeepExplainer(loaded_model, data)\r\ns
…
