…
  "state": "open",
  "locked": false,
  "assignee": null,
  "assignees": [

  ],
  "milestone": null,
  "comments": 2,
  "created_at": "2020-04-24T05:56:42Z",
  "updated_at": "2020-04-29T08:40:57Z",
  "closed_at": null,
  "author_association": "NONE",
  "active_lock_reason": null,
  "body": "I'm trying to use shap for a lstm model with the below architecture: \r\n\r\n```\r\n_________________________________________________________________\r\nLayer (type)                 Output Shape              Param #   \r\n=================================================================\r\nmasking (Masking)            (None, 4, 35)             0         \r\n_________________________________________________________________\r\nlstm (LSTM)                  (None, 4, 200)            188800    \r\n_________________________________________________________________\r\nlstm_1 (LSTM)                (None, 200)               320800    \r\n_________________________________________________________________\r\nbatch_normalization (BatchNo (None, 200)               800       \r\n_________________________________________________________________\r\ndropout (Dropout)            (None, 200)               0         \r\n_________________________________________________________________\r\ndense (Dense)                (None, 250)               50250     \r\n_________________________________________________________________\r\ndropout_1 (Dropout)          (None, 250)               0         \r\n_________________________________________________________________\r\ndense_1 (Dense)              (None, 50)                12550     \r\n_________________________________________________________________\r\ndropout_2 (Dropout)          (None, 50)                0         \r\n_________________________________________________________________\r\ndense_2 (Dense)              (None, 1)                 51        \r\n=================================================================\r\nTotal params: 573,251\r\nTrainable params: 572,851\r\nNon-trainable params: 400\r\n_________________________________________________________________\r\n```\r\nTF Version - tensorflow-2.0.0rc1\r\n\r\nwhen I run this snippet on the model, a custom gradient error is raised.\r\n```\r\nexplainer = shap.DeepExplainer(model,
…
