…
  "body": "Hello.\r\nHere is my pre-trained model summary. I get errors when using DeepExplainer.  I am using 503 test backgrounds for computing Shap values.\r\nAnyone can give a hand? Thanks.\r\nError : Layer \"sequential_1\" expects 1 input(s), but it received 503 input tensors. Inputs received: [<tf.Tensor: shape=(1, 300, 300, 3), dtype=float64, numpy=\r\n\r\nModel Summary: Model: \"sequential_1\"\r\n_________________________________________________________________\r\n Layer (type)                Output Shape              Param #   \r\n=================================================================\r\n conv2d_3 (Conv2D)           (None, 300, 300, 32)      896       \r\n                                                                 \r\n max_pooling2d_3 (MaxPooling  (None, 150, 150, 32)     0         \r\n 2D)                                                             \r\n                                                                 \r\n conv2d_4 (Conv2D)           (None, 150, 150, 64)      18496     \r\n                                                                 \r\n max_pooling2d_4 (MaxPooling  (None, 75, 75, 64)       0         \r\n 2D)                                                             \r\n                                                                 \r\n conv2d_5 (Conv2D)           (None, 75, 75, 32)        18464     \r\n                                                                 \r\n max_pooling2d_5 (MaxPooling  (None, 37, 37, 32)       0         \r\n 2D)                                                             \r\n                                                                 \r\n flatten_1 (Flatten)         (None, 43808)             0         \r\n                                                                 \r\n dense_3 (Dense)             (None, 64)                2803776   \r\n                                                                 \r\n dropout_2 (Dropout)         (None, 64)                0         \r\n                                                                 \r\n dense_4 (Dense)             (None, 32)                2080      \r\n                                                                 \r\n dropout_3 (Dropout)         (None, 32)                0         \r\n                                                                 \r\n dense_5 (Dense)             (None, 6)                 198       \r\n                                                                 \r\n=================================================================\r\nTotal params: 2,843,910\r\nTrainable params: 2,843,910\r\nNon-trainable params: 0",
  "closed_by": null,
  "reactions": {
    "url": "https://api.github.com/repos/shap/shap/issues/2759/reactions",
    "total_count": 0,
    "+1": 0,
    "-1": 0,
    "laugh": 0,
…
